…
l_accuracy: 0.6720\n","Epoch 9/10\n","1407/1407 [==============================] - 22s 16ms/step - loss: 0.8184 - accuracy: 0.7134 - val_loss: 0.9336 - val_accuracy: 0.6708\n","Epoch 10/10\n","1407/1407 [==============================] - 22s 16ms/step - loss: 0.7558 - accuracy: 0.7347 - val_loss: 0.9115 - val_accuracy: 0.6920\n","Model: \"sequential_25\"\n","_________________________________________________________________\n","Layer (type)                 Output Shape              Param #   \n","=================================================================\n","conv2d_32 (Conv2D)           (None, 30, 30, 128)       3584      \n","_________________________________________________________________\n","conv2d_33 (Conv2D)           (None, 28, 28, 128)       147584    \n","_________________________________________________________________\n","max_pooling2d_16 (MaxPooling (None, 14, 14, 128)       0         \n","_________________________________________________________________\n","flatten_25 (Flatten)         (None, 25088)             0         \n","_________________________________________________________________\n","dropout_48 (Dropout)         (None, 25088)             0         \n","_________________________________________________________________\n","dense_75 (Dense)             (None, 100)               2508900   \n","_________________________________________________________________\n","dropout_49 (Dropout)         (None, 100)               0         \n","_________________________________________________________________\n","dense_76 (Dense)             (None, 100)               10100     \n","_________________________________________________________________\n","dropout_50 (Dropout)         (None, 100)               0         \n","_________________________________________________________________\n","dense_77 (Dense)             (None, 10)                1010      \n","=================================================================\n","Total params: 2,671,178\n","Trainable params: 2,671,178\n","Non-trainable params: 0\n","_________________________________________________________________\n"],"name":"stdout"}]},{"cell_type":"markdown","metadata":{"id":"-OvAZPzc7rwy","colab_type":"text"},"source":["#### CNN Network Architecture\n","**Layer Settings**\n
…
https://lh3.googleusercontent.com/a-/AOh14GiY49jQAKtCa6rqnu5xXNnOP4LqlJeCBb1x_cWI=s64","userId":"04257202270567158540"}}},"source":["print(\"MLP Summary \\n\")\n","model_mlp.summary() \n","print(\"\\nCNN Summary \\n\")\n","model_cnn.summary() "],"execution_count":27,"outputs":[{"output_type":"stream","text":["MLP Summary \n","\n","Model: \"sequential_8\"\n","_________________________________________________________________\n","Layer (type)                 Output Shape              Param #   \n","=================================================================\n","flatten_8 (Flatten)          (None, 3072)              0         \n","_________________________________________________________________\n","dense_24 (Dense)             (None, 100)               307300    \n","_________________________________________________________________\n","dense_25 (Dense)             (None, 100)               10100     \n","_________________________________________________________________\n","dense_26 (Dense)             (None, 10)                1010      \n","=================================================================\n","Total params: 318,410\n","Trainable params: 318,410\n","Non-trainable params: 0\n","_________________________________________________________________\n","\n","CNN Summary \n","\n","Model: \"sequential_25\"\n","_________________________________________________________________\n","Layer (type)                 Output Shape              Param #   \n","=================================================================\n","conv2d_32 (Conv2D)           (None, 30, 30, 128)       3584      \n","_________________________________________________________________\n","conv2d_33 (Conv2D)           (None, 28, 28, 128)       147584    \n","_________________________________________________________________\n","max_pooling2d_16 (MaxPooling (None, 14, 14, 128)       0         \n","_________________________________________________________________\n","flatten_25 (Flatten)         (None, 25088)             0         \n","_________________________________________________________________\n","dropout_48 (Dropout)         (None, 25088)             0         \n","_________________________________________________________________\n","dense_75 (Dense)             (None, 100)               2508900   \n","_________________________________________________________________\n","dropout_49 (Dropout)         (None, 100)               0         \n","_________________________________________________________________\n","dense_76 (Dense)             (None, 100)               10100     \n","_________________________________________________________________\n","dropout_50 (Dropout)         (None, 100)               0         \n","_________________________________________________________________\n","dense_77 (Dense)             (None, 10)                1010      \n","=================================================================\n","Total params: 2,671,178\n","Trainable params: 2,671,178\n","Non-trainable params: 0\n","_________________________________________________________________\n"],"name":"stdout"}]},{"cell_type":"markdown","metadata":{"id":"JEkxjKoSDK-i","colab_type":"text"},"source":["**From confusion matrix and test set classification ac
…
